classification/models/netG_epoch_20.pth (torch_old, 361495 bytes, 49 tensors)

encoder.0.weight f4 [8, 3, 3, 3]
000000 c8 a4 de be bb 4d 35 be 11 89 0c bf 86 a2 b2 bd
       -0.43485093 -0.17705433 -0.54896647 -0.08722405
000010 de 8c e6 3e b8 5c 8d be be 3a fe 3e 99 c6 40 3f
       0.45029348 -0.276098 0.49654192 0.75303036
000020 34 c4 66 3e a8 70 a5 be ca cd f1 bd 4b ca de be
       0.22535783 -0.32312512 -0.11806829 -0.43513712
000030 de 37 0c 3e 32 cc 7b 3e 92 c7 69 be c3 7b 89 3e
       0.13693187 0.24589613 -0.22830036 0.26852235
000040 f9 f5 20 3f 8f 0c 72 3e 29 7b 4b be e5 97 76 be
       0.62875324 0.23637603 -0.198712 -0.2408138
000050 e9 8d 0e bf e8 4a 86 bd bf b3 1a 3e f1 f1 3d be
       -0.5568529 -0.06557256 0.1510763 -0.18549325
000060 f7 68 40 3e 3f 14 bd 3e 93 da 44 3e 91 17 1a 3e
       0.18790041 0.3692951 0.19224004 0.15048052
000070 19 5b e3 3e 98 ee 19 3f e1 d3 3d be 63 3b 63 3e
       0.4440544 0.6012969 -0.18537857 0.22190623
000080 4f f4 8f bd e6 d4 f3 be 41 a1 21 bf a6 d0 0b bf
       -0.0702902 -0.47623366 -0.6313668 -0.5461525
000090 5e ba 9e 3e 81 88 82 3e 32 45 6d 3e 8e f2 8b be
       0.31001562 0.2549477 0.23170927 -0.27333492
0000a0 6b ec 43 3d f5 e0 7b 3e 98 8f 15 bf 66 06 fc be
       0.047832888 0.24597533 -0.5842223 -0.49223632
0000b0 6e a7 4b be 12 59 89 3e ef 5e 5c 3e c5 6b fa 3e
       -0.19888088 0.26825768 0.2152059 0.48910347
0000c0 78 d0 a2 3d 31 a4 8e 3d f5 fe 7a 3e c7 d2 b1 be
       0.079499185 0.06964911 0.24511321 -0.34731123
0000d0 b9 13 74 be a8 64 96 be dd 97 ea 3e fb f1 65 3e
       -0.23835649 -0.2937367 0.45818987 0.2245559
0000e0 00 68 d6 3c 45 0f c0 3c d1 9c de bc 14 c3 d9 bd
       0.026172638 0.023444781 -0.027174385 -0.10632911
0000f0 3d 45 55 bd 5e fc 95 be a1 8d 1d bf 2f 73 1c 3f
       -0.052067984 -0.29294103 -0.61544234 0.61113256
000100 96 3e 18 3f 04 c6 f1 3d 6f 29 9d 3e c9 f4 80 3e
       0.594705 0.118053466 0.30695674 0.25186756
000110 88 9d 2b be c7 80 aa bd 2b 23 17 be 8f dc 49 bf
       -0.16759312 -0.083253436 -0.1475951 -0.7885217
000120 d8 14 af 3e d7 71 1b 3e 38 d2 d4 bd c2 36 88 3e
       0.3419559 0.15180145 -0.103916585 0.26604277
000130 76 b7 e0 3d 28 8a e2 be f7 44 a1 be 75 99 17 be
       0.109724924 -0.4424603 -0.31497929 -0.14804633
000140 5b 60 11 bf bd 76 cf be fb 70 1a be 2a 01 49 bb
       -0.5678765 -0.40520278 -0.15082161 -0.003067086
000150 cb a0 66 be 04 78 0d be 97 1b 84 3e 1e 2c 5c 3e
       -0.22522275 -0.13815314 0.258023 0.21501204
000160 37 6d 5a 3e 99 26 3d 3f ce 62 1e bf fc 19 2f bf
       0.21330725 0.7388702 -0.61869514 -0.68399024
000170 14 11 f2 3d 4b d4 b4 be b3 c1 39 be c1 d9 18 bc
       0.11819664 -0.35318217 -0.18140297 -0.00932926
000180 da 5f 76 3e 8d 47 4a 3e e8 4a 03 3f 9d 75 b9 be
       0.24060002 0.19753857 0.5128617 -0.36222544
000190 32 3c e2 be 55 68 83 3e 14 64 79 bd 61 ce 25 bd
       -0.4418655 0.25665537 -0.060886458 -0.04048002
0001a0 7f 8a c3 3e c0 7f bc 3d e8 fd cf 3e 79 f2 23 3f
       0.38191602 0.09204054 0.40623403 0.6404186
0001b0 e2 a5 89 bd 4b 0e 14 3f d5 c2 11 3f 84 63 97 be
       -0.06721093 0.5783431 0.56937915 -0.29568112
0001c0 0c 5e 8a 3e 42 85 9b 3e 43 a1 44 bf 99 67 d4 be
       0.27024877 0.30375105 -0.76808566 -0.4148529
0001d0 35 99 16 bd fc 75 d4 be d9 45 57 3d a8 08 ea 3e
       -0.036767203 -0.41496265 0.052556846 0.4570973
0001e0 39 1a e9 be 92 e3 56 bc ad 5b a4 3e b1 08 59 bf
       -0.4552782 -0.01311578 0.32101193 -0.8477889
0001f0 58 6b 8c bd e3 f3 37 3e 8f 1e 70 3d 9b a2 71 be
       -0.06856412 0.17964129 0.058622893 -0.23597185
000200 89 3b 84 be 0b c6 4a 3e 89 26 a9 be a0 94 0d 3e
       -0.25826672 0.1980211 -0.33037212 0.13826227
000210 e8 bd 09 3e ba c0 3e be ff f5 33 3e df 08 c1 be
       0.1345135 -0.18628207 0.17574309 -0.3770208
000220 95 99 2a 3e ad 42 4e 3e 25 29 d6 be ed c1 c3 3d
       0.1666015 0.20142622 -0.41828266 0.09558473
000230 ee de 23 be 58 07 63 bd cb 27 12 3f ce 16 83 3e
       -0.1600301 -0.055426925 0.5709197 0.25603336
000240 62 29 ad be 49 2f b2 3e 7e 36 0c 3f 40 9d ef be
       -0.33820635 0.348017 0.5477065 -0.4679966
000250 d6 75 3a 3d fc d5 e6 3d f8 20 21 be 16 12 da 3e
       0.045522533 0.11271283 -0.15735233 0.42591923
000260 68 0a 55 3f a2 63 54 be 26 c2 53 3e e0 09 ce 3e
       0.83219004 -0.20741132 0.2067953 0.4024191
000270 38 1a 15 bf 37 8e 08 be 94 7e 99 3e 90 f6 bd be
       -0.5824313 -0.133355 0.29979384 -0.37102175
000280 50 df e9 3d 64 7b d6 3e a8 e0 a2 bd 15 f7 07 bf
       0.114195466 0.41891015 -0.07953006 -0.5311139
000290 9a 28 65 3e a3 b6 b7 bd 9e fe 03 bf 63 32 6c bd
       0.2237877 -0.08970382 -0.5156039 -0.05766524
0002a0 bd 3a 03 be 11 94 23 bf 11 ac 4f 3d 36 da e5 3e
       -0.12815376 -0.63897806 0.050701205 0.44893044
0002b0 a2 d3 09 be ad 8a 1e 3f d7 e1 e3 3e cc 0d 26 bf
       -0.13459638 0.6193035 0.4450824 -0.648648
0002c0 e4 cd a0 3d 93 65 c6 3e 8e b8 db be 27 11 64 3e
       0.078517705 0.3874937 -0.42914242 0.22272168
0002d0 89 52 c2 3e 7c 50 89 be 66 df e8 bd 6f 95 65 3e
       0.37953594 -0.26819217 -0.11370735 0.22420286
0002e0 55 79 ec be 84 04 20 be 8f a2 81 3e 20 54 e2 bd
       -0.4618632 -0.15626723 0.25319335 -0.11051202
0002f0 70 4f 85 3d 59 c4 78 3e fc a3 92 3e cc 56 14 3f
       0.06509292 0.2429365 0.28640735 0.5794494
000300 87 62 13 3e 7d a8 6e 3e b4 a5 0f 3f fd dc f7 be
       0.14393054 0.2330646 0.5611222 -0.48410788
000310 70 26 16 be ed 3a 2a be 50 16 ac bd df cc 90 3e
       -0.146631 -0.16624041 -0.08402693 0.28281304
000320 d6 09 95 3e c9 92 92 be 2b aa c8 bd 7f 14 fc 3e
       0.29109067 -0.28627613 -0.09798082 0.49234387
000330 30 39 40 bf 5d 6f 88 be 7f 37 7b bc a1 16 7f be
       -0.7508726 -0.26647463 -0.0153330555 -0.24910976
000340 5f 86 6a 3e 4f cb c5 3e 5f 43 ad bd 79 f8 4c 3e
       0.22902821 0.38631675 -0.08460116 0.2001666
000350 f2 43 be 3e df 04 18 bf 67 10 7e be cd d6 af bc
       0.37161213 -0.5938243 -0.24810944 -0.02146473

encoder.0.bias f4 [8]
000000 30 79 f6 be 44 2e 17 bf 5f 17 ef be 75 0a d5 be
       -0.48139334 -0.5905497 -0.46697518 -0.4160954
000010 67 07 8a 3e 65 ca 03 3e 8a 61 b5 3d 23 17 48 be
       0.26958773 0.12870176 0.08856495 -0.19540076

encoder.3.weight f4 [16, 8, 3, 3]
000000 9f 8b 80 be 12 82 e5 3e 5b 50 33 3e f2 96 7b bf
       -0.25106522 0.44825798 0.17511122 -0.982772
000010 83 2b 03 bf a7 ca 38 bf cb d3 c0 3e 47 5e 31 3f
       -0.5123827 -0.7218422 0.37661585 0.6928448
000020 8c b7 cc 3e eb c1 56 3e 82 72 91 3e 7d fc 59 be
       0.39983785 0.20972411 0.28407675 -0.21287723
000030 3b e8 57 3d 21 0d 66 3e 42 fb d3 bd 65 d5 32 bd
       0.052711707 0.22465946 -0.10350658 -0.04366054
000040 75 1c 0e 3e 14 eb 22 be 14 e3 5d bd 58 0f d2 bd
       0.13878043 -0.15909988 -0.054171637 -0.10256833
000050 61 c8 96 3e 21 ff 61 3e 05 2c d6 3d 00 50 ed 3e
       0.29449752 0.2206998 0.10457615 0.46350098
000060 d0 18 1d bf 32 86 0a bf 96 c9 17 3d c5 ac c5 3d
       -0.61365986 -0.54111016 0.03705748 0.09652094
000070 a4 9b 43 3e 53 8c 24 be 35 af af 3d 6e 8c 00 bd
       0.19102341 -0.16069154 0.0857834 -0.031383924
000080 d1 56 d9 be 08 fd 18 3f 0c c7 e0 3e 2e 96 8d 3c
       -0.42449048 0.59761095 0.4390186 0.017283525
000090 d3 5b 0f be 9c 65 62 3e 3f 12 95 bd cd 56 a4 3d
       -0.13999872 0.22109073 -0.07278871 0.080243684
0000a0 6d 0e 19 3e ff e1 07 be 7d d8 fc bd 37 fc 8c 3d
       0.14946909 -0.13269804 -0.12345979 0.06884044
0000b0 49 e9 5d be da 41 62 3d fa f9 9a 3e 50 7d 39 be
       -0.21671022 0.055238582 0.30268842 -0.18114209
0000c0 4c ee 22 be 62 03 7d 3e cc be 8f be a4 4c 5b bc
       -0.15911216 0.24708322 -0.28075254 -0.013384972
0000d0 4a 2a c0 3e f4 6e 93 be ea ed 50 bd 0c 85 9f be
       0.37532264 -0.28795588 -0.051008143 -0.31156194
0000e0 62 d7 d4 bc e0 ef 26 bd fd 12 9e be 3e 12 c1 3c
       -0.025981609 -0.040756106 -0.30873862 0.023568269
0000f0 c9 44 b0 bd eb 8f ca be 7d 89 a9 bd 0a 26 11 3f
       -0.0860687 -0.39562926 -0.08278177 0.5669867
000100 75 f4 4a 3f 2c 0f f5 3d af 5a d9 3e 17 0d 42 3f
       0.7927926 0.119657844 0.42452 0.75801224
000110 d9 e0 1c 3e cc e0 4d be c2 4e 28 bd 49 c8 17 bf
       0.15320148 -0.20105284 -0.041090734 -0.59289986
000120 20 e2 fb bb 3b 7b ab be 6c d1 d1 be d4 d2 e6 bd
       -0.0076868683 -0.33492455 -0.4098009 -0.11270681
000130 2f df 06 bf 54 6e d8 be 6f 9a 00 3f 40 ec 3a 3e
       -0.526843 -0.42271674 0.50235647 0.18254185
000140 fb 52 7b 3e 6e 42 34 3c e5 82 ef 3e 14 54 dc 3e
       0.24543373 0.011002166 0.46779552 0.43032897
000150 b2 07 bc 3e 14 c1 33 3f d6 fe 3b 3f 98 f9 93 bf
       0.3672462 0.7021649 0.73435724 -1.1560545
000160 59 85 33 bf 11 2e 1a bf 6e 54 a8 3e 21 d3 a7 bd
       -0.7012535 -0.6022654 0.32876915 -0.081945665
000170 85 5c de bd 3e d1 ca 3e 60 f9 31 3e f8 d2 a3 3d
       -0.108574905 0.39612764 0.17380285 0.079992235
000180 a3 0b ef 3c e6 ee bc be 56 91 cd be 70 d2 f7 be
       0.029180354 -0.36901015 -0.40149945 -0.4840274
000190 0e 7e bb 3d 52 6b 87 3d 7b 6a 55 bf 59 be f9 bb
       0.091549024 0.066122666 -0.833656 -0.007621568
0001a0 27 bc fa bd 58 eb 75 be cf 4c 19 3f 05 df 1b 3f
       -0.122429185 -0.24015558 0.59882826 0.60887176
0001b0 50 40 6f be 92 57 11 3e 66 da a1 3e fd 4e 1e be
       -0.23364377 0.14193562 0.31611937 -0.15459819
0001c0 e1 a5 ff 3d b2 af 70 3e fe 77 a0 be 63 f4 0d bc
       0.12482811 0.23504522 -0.31341547 -0.008664223
0001d0 58 86 12 bd aa 77 97 be 5e ad c3 bc 49 74 ee 3d
       -0.03577265 -0.29583484 -0.023886379 0.116432734
0001e0 cd d9 80 be 45 3e 57 3e 48 f5 af 3e d5 56 03 be
       -0.2516617 0.21019848 0.34366822 -0.12826093
0001f0 cc c5 d1 3d 2d 7e de 3e c1 92 1b 3e 14 66 e1 3d
       0.10242805 0.4345564 0.15192701 0.11005798
000200 10 d7 09 be a6 ef e8 3e 3a 0c 3e 3e 55 59 94 3c
       -0.13460946 0.45495337 0.18559352 0.018109003
000210 da b8 ed 3d 2e b6 7b bd 8a 22 85 be 9d 01 af be
       0.11607523 -0.061453037 -0.26002914 -0.34180918
000220 3d d4 8f bb 30 81 23 bd 38 92 9a be 0c 69 40 3e
       -0.0043893144 -0.039918125 -0.3018968 0.18790072
000230 68 03 c1 3d fe ec ea be 73 5c ac 3d 7e 98 96 3b
       0.09424478 -0.45883936 0.08416071 0.004595815
000240 59 0d cc bc 16 e8 07 bf 51 ea 05 be 16 6d d0 bd
       -0.024908708 -0.5308851 -0.13077666 -0.101770565
000250 21 70 31 bf 4d 00 97 be 36 4d 2f 3f c8 5d 24 3e
       -0.6931172 -0.29492417 0.6847719 0.160514
000260 a4 6c 30 3f 2a c8 d0 be 61 57 81 bd f5 39 b2 3e
       0.6891577 -0.40777713 -0.06315494 0.34809843
000270 89 63 f4 3d bb 9f 0a 3e 07 f4 c2 3e 6c 0f 18 bf
       0.11933047 0.13537495 0.38076803 -0.5939853
000280 a0 b0 2c bf 81 b8 d5 be aa 69 bb 3e f3 ac 84 bc
       -0.6745701 -0.41742328 0.36604053 -0.01619575
000290 f3 27 56 be 0a 12 1d 3f 07 55 4a 3e 95 52 88 3d
       -0.20913677 0.6135565 0.19758998 0.06656376
0002a0 f4 8b df bc 97 6f e9 be 26 2b 0b bf 74 98 ab be
       -0.027288415 -0.4559295 -0.54362714 -0.3351475
0002b0 b7 19 0e 3e 3c cf cb 3d 73 e7 ff be 15 13 25 bd
       0.13876997 0.09951636 -0.4998127 -0.0403014
0002c0 3f 57 2a 3d 52 5a 99 be 39 ed d2 3e 83 e3 e2 3e
       0.04158711 -0.2995172 0.41196612 0.44314203
0002d0 5d 7c ae bd 03 5f 80 3e a4 d6 16 3f 07 92 03 bd
       -0.08519814 0.25072488 0.58921266 -0.032121684
0002e0 61 ba 34 3e e8 af 18 3f c2 b2 77 be f7 f7 bb 3d
       0.17649223 0.5964341 -0.24189284 0.09178155
0002f0 80 fd 09 3f b9 13 13 bf 35 28 07 bf 33 ab 0f bd
       0.53902435 -0.5745197 -0.52795726 -0.035075378
000300 f7 35 d3 be 8b 92 b3 be 53 b9 25 3e 2f 62 da be
       -0.4125211 -0.3507274 0.16183977 -0.42653033
000310 46 ac c4 be 0b eb 74 bd f7 01 27 bd db f0 83 3e
       -0.38412684 -0.059794467 -0.04077336 0.25769696
000320 bb dc 8f be 3a c6 bd 3c b2 22 b7 3e 05 c9 ac be
       -0.2809809 0.02316581 0.35768658 -0.33747116
000330 f6 a6 2f be 6e cb 59 3e d0 da c3 be 04 ea 45 be
       -0.17153534 0.21269009 -0.38252878 -0.19327551
000340 76 89 53 3c 86 7e b2 3e 93 0e 15 be 24 fb 30 3c
       0.012911191 0.34862155 -0.14556341 0.010802064
000350 c8 ab b9 3e 64 dd d3 be 14 d8 30 be f8 ab db 3d
       0.3626387 -0.41379845 -0.17269927 0.1072616
000360 a8 54 00 3f 89 0b cf 3c a7 c0 ab 3c 2c 7d 47 3f
       0.50129175 0.025274055 0.020965887 0.7792537
000370 39 96 91 3d 4f 31 d2 3e 9a e2 56 3e 28 96 07 be
       0.07108731 0.41053244 0.20984879 -0.13240874
000380 c3 11 9c 3d 28 76 90 be da 04 74 be 90 f0 97 3e
       0.07620575 -0.28215146 -0.23829976 0.29675722
000390 a4 5b 3e bf 9f 3e 27 bf 0d 44 fa bd 0a 05 8a bd
       -0.7435858 -0.6532993 -0.12220011 -0.067392424
0003a0 4f 60 54 3d 1f a2 f4 3e 2d ef 01 3e b2 b2 31 3e
       0.05184966 0.4777994 0.12688895 0.17353323
0003b0 2a eb ce be d2 61 fc 3d af dc ec bb 47 ee e6 be
       -0.4041379 0.12323345 -0.007228456 -0.45103666
0003c0 24 68 ee 3e e3 a1 df 3e e5 ec 23 be c7 bc 8e be
       0.46563828 0.43678197 -0.16008337 -0.278784
0003d0 f9 75 2b 3e 6a f5 1a 3f cb db a8 be 0a e2 08 3e
       0.16744222 0.6053072 -0.3298019 0.13367477
0003e0 0b 3c 13 3f 4d 35 39 bf d8 40 ab be 18 35 bd 3e
       0.57513493 -0.72346956 -0.3344791 0.3695457
0003f0 db 44 64 be c7 2e aa bc b4 fa e3 3e 90 e7 7d be
       -0.22291891 -0.020774258 0.4452721 -0.24795365

encoder.3.bias f4 [16]
000000 65 8b aa 3c c2 9b 4c be f5 05 5d 3f b1 ec 55 3e
       0.020818422 -0.19981292 0.86337215 0.20891072
000010 b0 1c 80 be f4 34 26 bc e4 93 95 3e 8b 18 68 3e
       -0.25021887 -0.010144461 0.29214394 0.22665612
000020 0d c8 c4 3e fa 54 19 3f 27 7f ec bd 8b 0d df 3d
       0.38433877 0.5989529 -0.1154769 0.10891255
000030 38 cc a6 3d e2 9f 67 3f 83 40 bb 3d e5 f6 d2 be
       0.081444204 0.90478337 0.09143164 -0.4120399

encoder.6.weight f4 [32, 16, 3, 3]
000000 c5 8a 57 be 37 31 4a be 8e 1f 81 3e b9 08 63 be
       -0.2104903 -0.19745336 0.25219387 -0.22171296
000010 02 81 6b bd f9 f8 d5 3e 1c d4 d0 be 38 60 f6 bd
       -0.05749608 0.41791514 -0.40786827 -0.12030071
000020 19 e8 6c 3e 0a 43 9c 3e eb 0d f6 3e 40 75 0e bf
       0.23135413 0.30519897 0.48057494 -0.5564766
000030 fc 46 a2 3e 22 22 c3 3e 57 0c 37 bf fe 22 3d 3e
       0.31694782 0.3811198 -0.71503204 0.1847038
000040 05 91 e2 3e a8 2a 53 bf 33 9b bf 3d 97 44 2b 3e
       0.44251266 -0.82486963 0.09355774 0.16725384
000050 e2 4c 26 bf 87 50 42 3e 46 b6 de 3e 7f 79 1d bf
       -0.64961064 0.18976031 0.4349844 -0.61513513
000060 b6 41 c9 bd 4e d0 ad 3e eb 04 29 bf 7b fe d3 3e
       -0.098269865 0.33947986 -0.6602313 0.4140509
000070 1c 47 60 3e 3a 8e 13 bf 4c 33 49 3e e2 cd 81 3e
       0.21902126 -0.57638896 0.19648474 0.2535239
000080 15 57 24 bf d5 bf e7 3e e5 ac 9a 3e 77 84 35 bf
       -0.64195377 0.45263544 0.30210033 -0.7090525
000090 49 bc 55 be 2e b9 3f 3e 1d f1 44 be 0a 6f 68 be
       -0.20872606 0.18722984 -0.19232602 -0.22698608
0000a0 72 77 bd 3d 40 00 b7 be a4 32 32 be 14 ee d6 3e
       0.09251298 -0.35742378 -0.1740213 0.41978514
0000b0 11 fc 7c be 56 51 3e bd f8 ac 60 be 4b 15 e1 3e
       -0.2470553 -0.046464287 -0.21940982 0.43961558
0000c0 9a 2a 1a bf 45 12 f6 be 7e f7 f2 3e c0 0e 5e be
       -0.60221255 -0.48060814 0.47454447 -0.21685314
0000d0 da ef 0a be 1f 2d 2d 3f 2a db 66 3d 85 88 a1 3e
       -0.13568059 0.67646974 0.056361355 0.3154947
0000e0 60 49 c3 be 5d 4e 47 3e 94 00 60 3e 8a 5f c4 be
       -0.38141918 0.19463487 0.2187522 -0.3835414
0000f0 23 08 85 3e f6 02 8b 3e 4c 7c f1 be 26 2b cf 3e
       0.2598277 0.27150697 -0.47165143 0.40462607
000100 dc 62 98 3e 5c 5f ea be e0 89 83 3e 0e 00 0c bd
       0.29762924 -0.45775878 0.25691128 -0.03417974
000110 86 08 f6 be 0f 0c b5 3e d3 a7 01 be db 47 46 bf
       -0.48053378 0.35360762 -0.12661676 -0.7745339
000120 03 dc e8 3d b7 c3 c2 3d e9 d1 12 be 90 b9 0c be
       0.11370089 0.09509986 -0.14337887 -0.13742661
000130 a8 b2 da be 8c 2d 16 bf 5f 69 19 be 94 55 bb 3e
       -0.4271443 -0.5866325 -0.14981602 0.36588728
000140 2b 7c ad 3d 41 e1 10 bf ae ee ea be fc d3 b4 3e
       0.08470949 -0.5659371 -0.45885223 0.3531798
000150 68 1c 89 be 85 a7 3e be 59 6b be 3e cc 84 40 be
       -0.26779485 -0.18618591 0.37191275 -0.18800658
000160 f5 53 10 be d3 85 19 3f 23 3c af be 81 8f 79 bd
       -0.14094527 0.59969825 -0.34225568 -0.06092787
000170 99 38 70 3e 90 98 35 be 29 00 31 3e ad 54 b9 3c
       0.2345909 -0.17733979 0.17285217 0.022623384
000180 2e 4a 34 be 6b 4f a9 3d bc 05 e7 3e e7 45 4f 3d
       -0.17606422 0.08267101 0.45121562 0.050603773
000190 4e bc 31 3d 18 71 98 be ea 5e 51 3d c8 14 d1 3d
       0.043392472 -0.29773784 0.051115908 0.10209042
0001a0 cd 78 a2 be f5 7d 63 3d 95 97 94 ba 96 87 6b be
       -0.3173279 0.055540044 -0.0011336679 -0.2300094
0001b0 1e ba 9f 3e ff 66 45 3e b4 06 2b be 5d d8 ab 3d
       0.31196684 0.19277571 -0.16701776 0.083908774
0001c0 7c 57 bc bd 41 08 55 be 9f 23 20 3d 05 d5 11 be
       -0.09196374 -0.2080393 0.03909647 -0.14241417
0001d0 22 47 f2 be 0a ea 6f 3d 4f 35 b4 be 35 74 e7 3d
       -0.47319895 0.058572806 -0.3519692 0.113014616
0001e0 e1 12 c3 bf d9 8b 89 bf 99 54 43 be ce 48 c6 3d
       -1.5240136 -1.0745803 -0.1907524 0.09681855
0001f0 af 2a 7d be a0 56 b2 3e 86 2e ed 3c 86 48 4e 3e
       -0.24723314 0.34831715 0.028952848 0.20144853
000200 78 9b a2 3d 34 e4 a2 bd d1 1a be 3d ce da 47 bd
       0.079398096 -0.079536825 0.092824586 -0.048792653
000210 94 12 56 be d4 83 2c 3e e1 d1 28 3c 8f 7f 8d 3e
       -0.20905524 0.16847163 0.010303945 0.27636382
000220 6f 9f 5d be 7d f9 a1 3e 27 7d 72 3d 31 e9 06 bf
       -0.2164285 0.31635657 0.059201386 -0.5269957
000230 1a 35 96 3e 6a a8 59 3c f5 3f 09 bf 15 12 fa bd
       0.29337388 0.013284782 -0.53613216 -0.1221048
000240 4e e7 c2 3e 7b e0 c6 bd 5c ed e0 be 0d 73 8b bc
       0.38067096 -0.09710785 -0.4393109 -0.017022634
000250 04 67 87 be 5d e0 be be 16 32 9c 3e 68 f0 b2 3e
       -0.26445782 -0.3728055 0.30506963 0.3494904
000260 a8 2d b1 bd bb c0 2e 3e 45 89 15 be 06 c7 03 bd
       -0.08651286 0.17065708 -0.14603145 -0.032172225
000270 6a de c3 bd e4 cd c5 3d d2 cf c0 3e 38 29 88 bc
       -0.095639065 0.09658411 0.37658554 -0.016621217
000280 bf 7e 62 bb 2c 41 96 3c e9 45 2e 3c ff ad ef 3c
       -0.003456041 0.018341623 0.010636785 0.029257772
000290 02 4e 10 3e b8 73 6f 3e 7b 62 33 3f ef cd f2 3e
       0.14092258 0.23383987 0.70072144 0.4742274
0002a0 cf 70 86 3d e3 a4 e8 3e 17 fd ca 3c 1d d1 ed bd
       0.06564485 0.454383 0.024778886 -0.11612151
0002b0 76 37 3f 3e df ba 2e 3d 8e 93 6e be 34 27 48 3e
       0.186735 0.042658683 -0.23298475 0.19546205
0002c0 fa 78 1e 3e d0 d4 38 3d 31 1d 36 3f 34 ed e6 3e
       0.15475836 0.04512483 0.7113829 0.45102847
0002d0 34 7a 5d be ca c6 c6 be c9 49 83 bd 06 51 81 3c
       -0.21628648 -0.3882354 -0.06410558 0.015785705
0002e0 d9 64 24 be f0 88 ca 3c bf 68 56 be 86 80 78 be
       -0.16054095 0.0247235 -0.20938395 -0.24267778
0002f0 37 39 8a 3e 8b 05 ba bd 53 ea 1b be cf 43 f8 bc
       0.26996776 -0.090830885 -0.15226106 -0.030305771
000300 a3 13 42 bf b9 48 52 bf 97 93 42 bf b1 35 60 bf
       -0.75811213 -0.82142216 -0.76006454 -0.87581927
000310 a4 0e 44 bf f7 6a 12 bf 4b ac b1 3e 3d 70 70 3f
       -0.7658484 -0.57194465 0.34701762 0.9392126
000320 bc 67 ee 3e bd 9b 51 3e 59 84 91 3f 59 30 ed 3e
       0.46563518 0.20469566 1.1368514 0.4632595
000330 06 7a 0d 3e 2b de b0 3e ab 4a 3b be 10 e9 d0 bc
       0.1381608 0.345445 -0.18290202 -0.025501758
000340 03 4a 08 3f f6 32 99 3e 3e 00 96 be 49 21 f7 3e
       0.5323793 0.29921693 -0.2929706 0.48267582
000350 97 72 51 3e e9 e9 f1 be 4c 48 77 3d c0 87 44 be
       0.20453869 -0.47248772 0.060371682 -0.1919241
000360 23 32 17 3e cd 03 e2 be 68 51 91 bd df a0 65 3e
       0.1476522 -0.44143525 -0.07095605 0.22424649
000370 cc 64 06 be bf 1c 89 3e b4 c7 8b 3e 94 a3 33 3c
       -0.13124388 0.26779744 0.273008 0.010964293
000380 26 8d 00 3f 75 9b a8 be e8 9a 0e bf 44 1a c3 be
       0.50215375 -0.32931104 -0.5570512 -0.38105977
000390 56 93 3e 3d 2e 17 f4 bd c5 6c f2 3d 79 7d ea 3d
       0.04652723 -0.11918484 0.118371524 0.11449713
0003a0 1d 31 82 3d 73 7c 9f 3e 6b 67 a8 bc 10 c2 8e be
       0.06357024 0.31149635 -0.020557126 -0.27882433
0003b0 10 8e 6c 3e ad b5 0a 3e b5 fe a4 3d f4 5a ff 3e
       0.23101068 0.13545866 0.08056394 0.4987408
0003c0 26 39 f9 bc c9 25 f7 bd 1d 8c e2 3e c4 be 17 bf
       -0.030422758 -0.12067754 0.44247523 -0.5927546
0003d0 fd 16 f0 bd 4f 41 25 bf 67 62 32 bd 96 2d 27 3f
       -0.11723135 -0.6455278 -0.043550875 0.65303934
0003e0 7d 55 06 3e 0d 05 16 3d e8 de 70 3f 98 3a f2 3e
       0.13118549 0.03662591 0.9409013 0.47310328
0003f0 6d 87 04 bc b7 7c bf 3e 49 9a 37 be fa 08 60 be
       -0.008088929 0.37399837 -0.17929949 -0.21878424

encoder.6.bias f4 [32]
000000 d6 58 3f 3e 19 6a 4a 3e ba 16 94 3c cd fe 11 be
       0.18686232 0.19767036 0.018077243 -0.14257355
000010 d2 8f c8 3d b2 42 f0 3e 71 64 9c be df 1b c6 bd
       0.097930565 0.46925884 -0.3054538 -0.09673285
000020 d7 5f 88 3e b8 da 84 3e 97 93 7d be fc 55 db 3e
       0.2663562 0.2594812 -0.24763332 0.42839038
000030 26 4c 8d be 57 c0 d6 bd 04 a1 9d be 4b 4f 5f 3f
       -0.2759716 -0.10485905 -0.30786908 0.87230366
000040 b7 87 92 3b 30 19 40 3f 80 91 98 be bf 0e 77 be
       0.004471745 0.75038433 -0.29798508 -0.24126719
000050 c5 34 2e 3d 6c e4 37 bf 93 7b c9 bd 03 ff 5a 3e
       0.042530794 -0.7183292 -0.09838023 0.21386342
000060 82 ec f3 3e c0 83 f0 bd b9 20 05 3f bd 34 0e bf
       0.4764138 -0.11743879 0.52003056 -0.5554922
000070 f5 be 94 3e 3a 9a cd be 85 f3 ee bd bd 81 5f 3d
       0.2905194 -0.40156728 -0.116675414 0.054567087

bottle_neck.0.conv_block.1.weight f4 [32, 32, 3, 3]
000000 c9 4c 9f bd 82 2f 3a 3e 95 3f 99 bd b4 f1 3f be
       -0.077783175 0.18182185 -0.074828304 -0.18744546
000010 47 fa 58 be aa ec 82 3b b3 0d 72 be 94 d7 ab be
       -0.21189223 0.0039954977 -0.23638038 -0.3356291
000020 8c dc 67 be e8 4b 6b be 4a 2e d1 bd 7d 06 b7 be
       -0.22642726 -0.22978175 -0.10213907 -0.35747138
000030 c5 7d 80 bd 50 e6 c9 bd 22 a4 80 be b9 fd 03 3e
       -0.06273989 -0.09858382 -0.25125223 0.12889756
000040 4c 53 2e be 2d e5 38 be df 45 9c 3e 00 14 5a 3e
       -0.17023963 -0.18056174 0.30522057 0.21296692
000050 68 27 1f be 1f 99 10 bd c5 96 66 3e 93 6a 8b bd
       -0.15542376 -0.035302278 0.22518452 -0.06807437
000060 16 ad 2e bd c1 f7 ab 3e 68 29 45 3d 40 fc 95 be
       -0.042645536 0.3358746 0.04813519 -0.29294014
000070 10 cb 20 be 7f 01 de 3c 7b ef 1d be c2 2d 12 be
       -0.15702462 0.027100323 -0.15423386 -0.14275268
000080 67 d3 d2 3d e0 e1 69 3e 63 47 34 3e 96 2c bf 3e
       0.10294228 0.2284007 0.17605357 0.37338704
000090 0d 8d d1 bc 3d 10 32 be 13 74 d3 be db 46 25 be
       -0.025579954 -0.17389007 -0.41299495 -0.1614031
0000a0 d0 ab fd bd c1 28 8b be 46 2e 81 3d 5b d7 50 3d
       -0.12386286 -0.2717953 0.06307654 0.05098663
0000b0 e0 41 6f be 5b c3 2f be e2 61 88 be 7a f7 2f be
       -0.23364973 -0.17164366 -0.2663718 -0.17184249
0000c0 b6 95 d9 bd 62 1b a9 bd 23 66 e1 bc 02 d0 bf 3c
       -0.10624258 -0.08257176 -0.027514523 0.023414616
0000d0 d5 46 d1 3d 3c 69 29 bd 4a e8 c6 be 3c de e1 be
       0.10218588 -0.041360125 -0.38849097 -0.44114864
0000e0 9e 80 80 be 33 98 8c 3e 19 75 f5 bc b0 95 3f 3e
       -0.25098127 0.2745987 -0.029963063 0.18709445
0000f0 2c fe 09 3e f2 69 89 3d ea 3e 00 bf 91 fd c3 3d
       0.13475865 0.067096606 -0.50096 0.09569848
000100 39 3c 47 3e 02 31 54 be 48 1e aa be 5a 91 d5 be
       0.19456567 -0.2072182 -0.33226228 -0.41712457
000110 44 92 0a bf 1f 73 92 bc d8 92 bb 3e 41 9d a8 bd
       -0.54129434 -0.01787716 0.3663547 -0.08233119
000120 d3 c9 23 3d f0 e0 53 be 42 94 5c be 2b 4a a0 be
       0.039987396 -0.20691276 -0.21540931 -0.31306586
000130 57 39 94 be 57 9e 85 be 0d 2f 74 be d6 f4 56 be
       -0.28949997 -0.26097366 -0.23846073 -0.20991835
000140 6b 67 2a be eb 22 74 3e e0 43 1b 3d 41 f9 e9 3e
       -0.16641013 0.23841445 0.037906528 0.45697978
000150 eb f5 57 bd 7e 09 cf be ea f1 97 bd d5 c8 13 3e
       -0.05272476 -0.4043693 -0.07419188 0.1443208
000160 9a df c5 bd 1f af aa 3d 94 98 0c be 06 d3 22 bf
       -0.09661789 0.08334183 -0.13730079 -0.63603246
000170 27 45 5f bf 3e fd be 3d 9c f7 99 be 02 e6 2e bf
       -0.87214893 0.09325646 -0.30071723 -0.68319714
000180 57 42 96 3f 3b f2 40 3f e1 01 e5 3e 02 0d 9d 3d
       1.1738995 0.75369614 0.44727996 0.07668497
000190 65 6b af 3d b5 10 15 bf c2 ef 1b 3f ba 98 e7 3e
       0.08565406 -0.5822862 0.60912716 0.4523371
0001a0 71 b3 eb 3e 3e 49 34 bf 2f 6d 0e bf 5c 8f ea be
       0.4603534 -0.7042426 -0.5563535 -0.458125
0001b0 36 fd 10 3f b8 ab d9 3e 29 bd cb bc b4 c5 8b 3e
       0.5663637 0.42513824 -0.024870472 0.27299273
0001c0 a0 c9 b3 3e 11 fa 39 bd d6 7e 31 3e 16 23 63 3d
       0.35114765 -0.045404498 0.1733354 0.055453382
0001d0 60 ed 1d be 36 06 73 3f 67 29 cf 3e de 1c b8 3e
       -0.15422583 0.9493135 0.40461275 0.35959524
0001e0 7a b8 1f 3f 25 76 29 3e d2 b9 d7 3d 4b 91 5e bf
       0.62390864 0.16548975 0.10533489 -0.8694045
0001f0 24 76 b2 bf 3a 3f b0 bf 7b d5 2e 3f ac 04 0c 3f
       -1.3942304 -1.3769295 0.68294495 0.5469463
000200 36 ec a5 3f 9c 01 90 be d4 da 2b be 6a f8 3e 3f
       1.2962711 -0.28126228 -0.16782695 0.745978
000210 e5 ad a1 bf e7 ac 8e bf 5b 81 4a be 7c 2f 30 3e
       -1.2631193 -1.1146516 -0.19775908 0.17205614
000220 da c2 18 be 7f 23 49 3e 6f b7 ee bd a7 98 07 be
       -0.1491808 0.19642447 -0.11656081 -0.13241826
000230 ae 36 03 bd 6d 72 69 be 7a 18 9c be 67 f7 7f be
       -0.03203457 -0.22797556 -0.30487424 -0.2499672
000240 7c e5 9a bd 7c 86 38 be 68 ac 90 be 29 03 61 3d
       -0.07563302 -0.18020052 -0.28256536 0.054934654
000250 73 6b bc 3d da 47 b4 bd 93 2e d6 3e 34 b4 a1 3e
       0.09200182 -0.08802767 0.41832408 0.31582797
000260 27 cd 04 3f e5 88 eb bd bf ee 76 be c6 ad 7e 3d
       0.5187554 -0.1150072 -0.24114512 0.062177442
000270 bc 7b f7 3d 7c 19 b8 3d 87 30 48 3e 51 c8 86 be
       0.12084147 0.08989236 0.19549762 -0.26324704
000280 7c 63 46 3d 1d cc 08 bf 93 99 38 3d fb 7a 90 3c
       0.04843472 -0.5343645 0.045068335 0.017636767
000290 af 3a 73 bc df 9d ed bd 95 fe d9 3d f2 41 1b be
       -0.014845534 -0.11602377 0.10644261 -0.15161875
0002a0 a3 97 4a be bf 4e b6 bd 50 48 e7 bd 02 0b 69 bf
       -0.19784407 -0.089017384 -0.112930894 -0.9103242
0002b0 8f 25 d5 bd aa b4 22 bf bf c2 a1 be 3b 47 f3 3c
       -0.10407554 -0.6355692 -0.31593892 0.029697051
0002c0 45 b9 5c be a4 15 b7 3e bf 3f d0 3e c1 02 c3 3e
       -0.2155505 0.35758698 0.40673634 0.3808804
0002d0 80 58 30 3e 8a 39 15 bd 61 fa 5b 3e 99 89 d4 3c
       0.1722126 -0.036431827 0.2148223 0.025944518
0002e0 7d 77 60 be 50 95 80 3d 97 e8 c7 bd 2e 2e 0e be
       -0.21920581 0.06278479 -0.0976116 -0.13884804
0002f0 76 e5 4b bd f5 f7 db 3e f3 73 45 3f 2e 51 2c 3f
       -0.049779378 0.42962614 0.7713005 0.6731137
000300 bf 62 7f be 96 5a 3f be 2a b1 e5 bd 38 30 89 be
       -0.24940012 -0.186869 -0.11215432 -0.267946
000310 d2 2a 2b be c1 00 32 be 30 eb a0 3e 8c f9 05 3f
       -0.16715553 -0.173831 0.31429434 0.52333903
000320 c1 bf c1 3d 80 9c 16 bf 2c 5f 41 be 04 86 21 bf
       0.09460402 -0.5883255 -0.18883961 -0.63095117
000330 40 a7 ad be 37 b6 26 be 55 2a 6f bf ec 9f 95 3e
       -0.33916664 -0.16280447 -0.9342397 0.29223573
000340 b1 1c 37 be 49 90 24 3e 3e ea a6 be 53 ca 0e bf
       -0.17882039 0.16070665 -0.32600588 -0.5577747
000350 1f 01 da 3d 78 68 d4 bc 6f a9 06 3e 3e 82 aa 3e
       0.10644745 -0.02592872 0.13150571 0.33302492
000360 59 af dc 3d 5b 83 4d 3e ff 6e 84 3e aa 24 90 3e
       0.107756324 0.2006964 0.25865933 0.28152972
000370 44 d2 28 3e 8e bc 77 3e fb 26 82 be 89 1f d7 be
       0.1648646 0.24193022 -0.25420365 -0.42016247
000380 7e 48 d5 bd f8 9f ad 3e f5 b7 36 3e 11 9f 88 3e
       -0.104142174 0.3391111 0.17843612 0.26683858
000390 1d 00 0a be 00 5f 6c be 36 45 63 be fa 76 50 be
       -0.13476606 -0.23083115 -0.2219437 -0.20357886
0003a0 25 78 e0 be 9d 83 e9 be 19 22 ea be 87 82 4f be
       -0.43841663 -0.45608225 -0.4572914 -0.20264636
0003b0 9b 5c 58 be 78 12 8b be 9f e8 99 bd 96 78 dc 3c
       -0.21129076 -0.27162528 -0.07515072 0.026912969
0003c0 a4 89 c5 bd 41 a4 7c 3e 38 06 72 3e af 67 28 bd
       -0.096453935 0.24672033 0.23635185 -0.041114505
0003d0 b1 1d 95 bd 00 e6 07 bf 3e dc b3 3d fc 61 16 be
       -0.07281054 -0.5308533 0.08782242 -0.14685816
0003e0 c3 3c d8 be 4d ea cc 3e b8 46 5b 3e 3d 9e 85 be
       -0.42233858 0.40022507 0.21413696 -0.2609729
0003f0 13 fc 53 be 9f 67 34 be 68 e2 34 be 03 97 9e 3e
       -0.20701627 -0.17617653 -0.17664492 0.30974588

bottle_neck.0.conv_block.2.weight f4 [32]
000000 19 f9 0c 3f 65 24 46 3f 1a 58 f8 3e a3 05 85 3f
       0.5506759 0.77399284 0.48504716 1.0392345
000010 95 24 3e 3f 1a 37 3e 3f 39 bd c7 3e ea 9c 57 3f
       0.7427457 0.7430283 0.39011553 0.84223807
000020 bb 8d d7 3e 33 67 af 3e bb 07 88 3f 4b 0a 03 3f
       0.4210032 0.34258422 1.0627359 0.5118758
000030 ad 6c 12 3f b9 c8 d1 3e c2 8f 37 3f 4e df c4 3e
       0.57197076 0.40973452 0.7170373 0.38451618
000040 21 7a 97 3f f0 a3 dd 3e 01 fd 83 3f 81 f5 3f 3f
       1.1834146 0.43289137 1.0311586 0.74983984
000050 69 ad 1b 3f 91 53 b2 3e a1 e0 86 3f a1 78 8b 3f
       0.6081148 0.3482938 1.0537301 1.0896188
000060 f0 fd e1 3e 42 81 ac 3e 9c c1 d7 3e 9f 39 31 3f
       0.4413905 0.33692366 0.421399 0.6922855
000070 2f 00 45 3f d2 05 93 3f f5 72 af 3f b1 13 06 3f
       0.76953405 1.1486151 1.3706957 0.52373797

bottle_neck.0.conv_block.2.bias f4 [32]
000000 1d 55 7d bb a9 c2 50 bf d9 b9 99 bd ee 40 0d bf
       -0.0038655468 -0.8154703 -0.07506151 -0.551772
000010 ff 1a 18 3e 26 80 4a be 03 9c 46 3f 40 f3 39 be
       0.14854048 -0.19775447 0.77581805 -0.18159199
000020 06 a1 ff bc 57 a2 aa 3e a6 09 66 be f6 97 79 be
       -0.031204712 0.3332698 -0.22464618 -0.24374375
000030 ff fd b3 be 25 9c c4 3d 87 76 69 3c ec 93 c5 bc
       -0.3515472 0.09600095 0.0142494505 -0.024118386
000040 10 32 a2 be 81 dc 93 3e 08 6b bb be a6 7e c1 3d
       -0.3167882 0.2887917 -0.36605096 0.094479844
000050 d0 cc f7 bd 77 e4 39 3c 7d 0d ba be 0f 69 f3 be
       -0.12099612 0.011345974 -0.36338416 -0.4754109
000060 f4 11 2e 3e df ac e0 3e 0a 0e b0 3e 59 50 d5 3d
       0.16999036 0.4388189 0.3438571 0.10415716
000070 c0 b6 d7 bd e2 37 51 bd a4 6f d5 be 54 6e e5 3e
       -0.10532904 -0.051078685 -0.41686738 0.44810736

bottle_neck.0.conv_block.2.running_mean f4 [32]
000000 cf a1 aa c0 a3 27 5d bf 8c 2a df be a7 d6 57 c0
       -5.332252 -0.86388606 -0.43587148 -3.3724763
000010 67 c2 a6 c0 99 64 e5 bf 27 27 70 c0 a7 fb f8 bf
       -5.2112308 -1.7921325 -3.7523897 -1.9451798
000020 bc b9 68 3f 46 80 57 bf c1 67 fa bf e1 5a e3 3f
       0.9090841 -0.84180105 -1.9562913 1.7762109
000030 c5 41 92 40 a7 ce 66 40 a4 0d 47 c0 3c 93 5d be
       4.5705285 3.606363 -3.1102076 -0.21638197
000040 2b 8f d9 bf cc 96 ac 3f 3b 5e d4 c0 6f f1 ab c0
       -1.6996816 1.348352 -6.6365027 -5.373222
000050 7a 41 cc bf f7 1c c5 bf 05 f8 84 c0 bb 50 ef c0
       -1.5957482 -1.5399464 -4.155276 -7.478605
000060 84 64 20 c0 27 fd 2a c1 d6 fe 1c c0 ce 08 f7 c0
       -2.506135 -10.686805 -2.453054 -7.719825
000070 b6 61 d0 bf fa 8e 6d c0 7d e3 a0 c0 34 85 57 c0
       -1.6279819 -3.7118516 -5.0277696 -3.367505

bottle_neck.0.conv_block.2.running_var f4 [32]
000000 c0 77 ed 41 9c f8 99 41 bf 38 ce 41 cb 07 a9 41
       29.683472 19.246391 25.777708 21.128805
000010 22 69 cc 41 97 e8 e7 41 58 2a 8f 41 d5 63 36 42
       25.551334 28.98857 17.895676 45.597492
000020 7a e5 41 42 d7 c2 70 41 69 72 20 42 99 c8 c8 41
       48.4741 15.047568 40.11173 25.097948
000030 f7 dd 63 41 6f 82 c2 41 ba 32 1d 42 6f 8f 32 41
       14.241691 24.313688 39.299538 11.160018
000040 a9 12 c3 41 61 f5 9c 41 3a fa 29 42 bc f0 0d 42
       24.384111 19.619814 42.49436 35.485092
000050 80 53 78 41 b2 dc 6c 41 0d 3e 9c 41 15 e9 03 42
       15.520386 14.803881 19.530298 32.97762
000060 60 f2 d1 41 2e 90 73 41 e4 b7 78 41 ff fa e0 41
       26.243347 15.2227 15.544895 28.122557
000070 3a ca 10 42 ea b7 13 42 14 be bc 41 fc 3d a6 41
       36.197487 36.929604 23.592812 20.780266

bottle_neck.0.conv_block.5.weight f4 [32, 32, 3, 3]
000000 8f cd 80 be 39 58 a3 be 15 3b 18 3c 87 89 f5 be
       -0.2515683 -0.31903246 0.00929143 -0.47956488
000010 b6 f4 7e be 66 8b bd 3d ef 4a 11 be a4 ba d1 be
       -0.24898037 0.09255104 -0.14188741 -0.40962708
000020 9a b4 05 be d5 1d fe bd 63 63 a8 be 4b 0d 0e 3e
       -0.13057175 -0.12408034 -0.32888326 0.13872258
000030 f5 4b bf be 33 05 f0 be e2 a6 9a 3d 91 5b 40 3e
       -0.37362638 -0.46878967 0.075513616 0.1878493
000040 f7 3b 93 be 02 37 0c 3e ba c7 a3 3d 31 68 bd 3d
       -0.28756687 0.13692859 0.07997079 0.092483886
000050 6c ef 97 3c 11 01 2d 3e 22 54 93 be a1 cc f3 bd
       0.018546782 0.16894938 -0.28775126 -0.11904264
000060 b2 5c 94 bc e5 b2 5b 3e 0e ba f5 bd 4f a8 77 3e
       -0.018110607 0.21454962 -0.11998378 0.24185298
000070 c2 6b b8 3e a5 96 4e 3f d4 2a 6c 3d a1 bf 90 3d
       0.36019713 0.80698615 0.05765803 0.070678
000080 83 be 8d 3d 8a 59 7c 3f 81 fe 03 3f 19 f9 21 3f
       0.06921103 0.98574126 0.5156022 0.6327072
000090 5a a4 94 3e e3 e1 f4 bd 79 fe 8d 3e 7f da f6 3e
       0.2903164 -0.11957147 0.2773321 0.48213574
0000a0 44 cf 2d be 6e f3 37 3e 2c 41 13 be e9 36 38 be
       -0.16973597 0.17963955 -0.1438033 -0.17989697
0000b0 4b 8c 3b be 54 0e ee 3e f3 f6 bf 3e 86 1f 10 3f
       -0.18315236 0.46495306 0.37493095 0.562981
0000c0 59 c5 96 be 18 53 cb 3e 87 21 c9 3b 30 d9 21 be
       -0.2944744 0.39711833 0.00613803 -0.15805507
0000d0 46 33 ac be 03 1d 65 be 9c 78 06 3e 0e 4a 9d 3d
       -0.3363287 -0.22374348 0.13131946 0.076801404
0000e0 ab 22 de 3d 23 4a e2 bd f9 a4 9d be 41 6d 93 be
       0.10846456 -0.11049297 -0.30789927 -0.28794292
0000f0 f0 d1 99 3e c6 61 07 3e e9 9c b8 3d 5b a9 4e 3e
       0.30042982 0.13220891 0.09014303 0.20181791
000100 b5 5b 37 3e 8f a3 f5 3e 2e ed d4 3c e3 0a e1 3d
       0.17906077 0.47976348 0.025992002 0.109884046
000110 d6 a4 50 3e ca 2c 2a bf 58 eb 45 be ec e3 de be
       0.2037538 -0.6647459 -0.19328058 -0.43533266
000120 fa 2b 8d 3e b7 bd 1d 3e 97 0e 6c 3e 13 ae 76 bd
       0.27572614 0.15404402 0.2305244 -0.060224604
000130 c4 8e 56 bd 1b 7d a3 3e b2 42 a3 be b3 3e 86 bd
       -0.052382246 0.31931385 -0.31886822 -0.06554928
000140 09 5d f0 3d 42 80 37 bf f4 26 46 bf db 03 4a bf
       0.11736495 -0.7168008 -0.7740319 -0.7891213
000150 ff d9 ec bd d4 1b 0b 3e 41 ae 17 3e 84 9d 44 bf
       -0.11565017 0.13584834 0.14812566 -0.7680285
000160 aa 68 45 3d 14 9a 49 bd 20 10 75 3e 7e d6 51 3e
       0.04819552 -0.049219206 0.23931932 0.20491979
000170 52 72 06 3f e0 e8 27 3d ea 39 9a bd ab 2a 1f 3d
       0.5251819 0.04099357 -0.075305775 0.03885905
000180 5c c8 f2 be 99 f5 19 be 57 e7 23 be a5 e1 d6 3e
       -0.47418487 -0.15035094 -0.16006218 0.41969028
000190 c2 df d0 3e f2 ad e9 bd 0c c7 c6 be a0 a7 0f be
       0.40795714 -0.114101306 -0.38823736 -0.14028788
0001a0 db 20 de bd ec 61 1d bc d5 2d 0b 3f 3b 85 37 3f
       -0.108461104 -0.009605866 0.5436681 0.7168767
0001b0 43 d7 cc 3c 0e eb 65 be f8 d2 b5 be 03 41 81 bb
       0.025004989 -0.22452947 -0.3551252 -0.0039445176
0001c0 80 68 52 be fd a1 e5 be fb f6 8c 3e 12 95 1f 3d
       -0.20547676 -0.4485015 0.2753218 0.038960524
0001d0 2d 41 b5 3e 3d 4a 59 be a5 33 71 3e 39 49 ff 3e
       0.35401288 -0.21219726 0.23554857 0.49860552
0001e0 ae fe 25 bf 0c 2e 66 bd 0c 0f e2 3d d7 6e c1 be
       -0.64841735 -0.056196257 0.11038026 -0.37779877
0001f0 fe 50 35 3e f2 05 85 bc 32 48 75 bd 2c 60 a3 3d
       0.17706677 -0.016238187 -0.059883304 0.07977328
000200 64 fe 03 3e dd bd 16 bf c9 75 c1 be b1 e9 3a bf
       0.12890011 -0.5888346 -0.37785175 -0.73012835
000210 dd 8f 10 3f a1 71 49 3e 58 9b 8c 3d 54 8e e7 3e
       0.5646952 0.19672252 0.06865567 0.45225775
000220 38 50 c6 3e f1 da 0e 3f 2d 3e 4b be e9 c7 95 3d
       0.38733077 0.5580283 -0.19847937 0.073135205
000230 6c e1 15 3f 10 55 db 3d 99 1f b9 bc d1 ce 08 3e
       0.5854709 0.10709584 -0.022598075 0.13360144
000240 2f f1 9e 3c 5c ef c4 be 58 ef ea be 77 e4 fc 3d
       0.019402115 -0.38463867 -0.4588573 0.12348264
000250 4f 1b f6 bd 9b f6 a9 3e 4f 77 b9 be aa da 86 be
       -0.120169275 0.33195958 -0.36223838 -0.26338702
000260 52 45 1d 3d a3 cb 20 3f 9e b7 7f 3e 6a 1f ec 3e
       0.038396187 0.62810725 0.24972388 0.46117717
000270 4c 66 13 3e 8f fe 6d be d0 47 c2 3e e2 c5 ea 3c
       0.14394492 -0.23241638 0.37945414 0.028658811
000280 71 26 f4 3d 71 61 b3 3e 71 e4 97 3d 73 3f 9f bd
       0.119213946 0.3503528 0.074166186 -0.07775774
000290 23 fa 4e bf 65 e9 1d 3f b3 15 9a 3c 87 6b a1 be
       -0.8085043 0.61684257 0.018809175 -0.3152735
0002a0 a9 09 02 3e 73 30 3e be e9 23 86 3d ee 3e 7e bf
       0.12698998 -0.1857317 0.06549818 -0.99314773
0002b0 b1 71 02 be 5c 87 16 bf a9 7e 2c bf f8 ed b0 3e
       -0.12738682 -0.5880029 -0.6738077 0.34556556
0002c0 59 04 d2 3e e2 cb 66 bf 8c 1e 8f be e2 d5 54 3d
       0.41018942 -0.9015485 -0.27952993 0.051961787
0002d0 f3 ae 82 be 43 5d 04 be 26 e2 83 bd 75 c6 22 bf
       -0.255241 -0.12926202 -0.06439619 -0.6358407
0002e0 f1 fe 53 be 80 56 97 be 6d bb ad bd a1 04 bf be
       -0.20702721 -0.29558182 -0.08483014 -0.3730822
0002f0 a8 6f c7 bd e7 e5 a1 3d ad 8e ab 3c b1 22 99 3e
       -0.097380936 0.079051785 0.020942057 0.2990928
000300 22 10 9e be 8b 9f 79 be eb 34 f1 bd 21 1c 10 3e
       -0.30871683 -0.24377267 -0.117776714 0.1407323
000310 22 e2 be bd 28 8d 80 be b6 8e 1f be 46 ad 5f 3e
       -0.09320475 -0.25107694 -0.15581784 0.21843442
000320 e3 d4 ec be 13 36 17 3f 9f a0 09 3e 94 ec ba be
       -0.4625617 0.59066886 0.13440178 -0.3650862
000330 2f 96 2b 3e e5 6c 83 3d 00 34 5b bd 3a fc 26 3f
       0.16756509 0.06417254 -0.053516388 0.6522862
000340 53 c1 5a 3e 71 3f 38 3f 0a 1b fc be ce ca 6f bc
       0.2136281 0.71971804 -0.4923938 -0.014635755
000350 5e 5f 78 be 11 9b d5 3d 19 d0 cb 3e a2 e8 65 bd
       -0.2425513 0.10429967 0.39807203 -0.05613006
000360 a0 43 c5 3e 7d 11 a8 3e 60 71 86 be f6 7a 3c 3e
       0.38528156 0.32825842 -0.26258373 0.18406281
000370 ed 43 c2 3e 00 45 30 bf a6 b6 b6 be a6 91 f8 3d
       0.37942448 -0.68855286 -0.35686225 0.12137155
000380 bb b2 f5 be 3c dd 21 3e a1 bb d6 3e 11 b4 54 3e
       -0.47987923 0.1580705 0.41940024 0.20771815
000390 00 6c 9d bc f0 5a 02 3e 87 e5 80 bd 1a a8 86 3e
       -0.019216537 0.12730002 -0.06293779 0.26300126
0003a0 95 70 a2 3e 80 37 b2 3e 73 26 34 be c1 b7 96 3d
       0.31726518 0.34807968 -0.17592792 0.07359267
0003b0 ee 3d c6 be 0a 2b 82 bd de ba 83 bd 8c 1e e8 be
       -0.38719124 -0.06355865 -0.064321265 -0.45335805
0003c0 ff 8b 7d be 10 c8 d9 bc 0c 08 b0 3c 9d 57 85 be
       -0.24760436 -0.026584655 0.021488212 -0.26043406
0003d0 ec 3e f5 3d b1 eb 33 be 48 70 86 bd 45 47 dc be
       0.11974892 -0.17570378 -0.06564385 -0.43023124
0003e0 d1 68 8b be 55 d3 20 3f d6 14 12 be 85 01 3d be
       -0.27228406 0.6282247 -0.14265761 -0.18457611
0003f0 a4 3c 51 be a5 71 fb 3e 08 83 16 3f d9 ee fd be
       -0.20433289 0.4911014 0.5879369 -0.4959629

bottle_neck.0.conv_block.6.weight f4 [32]
000000 a5 aa 5a 3f 8a 05 13 3f e9 51 38 3f 8a 01 60 3f
       0.8541663 0.57430327 0.71999985 0.8750235
000010 38 c6 0d 3f 31 e0 1b 3f 01 ad 1c 3f 3e 63 f0 3e
       0.5538058 0.60888964 0.61201483 0.46950716
000020 5c 48 d7 3e 2a 45 33 3f fe d6 30 3f 68 a0 3a 3f
       0.42047393 0.7002741 0.6907805 0.7290101
000030 ef 2a 3a 3f b3 dc 40 3f 34 60 fa 3e 7b f8 4a 3f
       0.7272176 0.7533676 0.48901522 0.792854
000040 0c ca dc 3e 04 8c 4f 3f 9e 10 65 3f e5 53 fd 3e
       0.431229 0.8107302 0.8947848 0.4947807
000050 8a 10 3f 3f 49 06 0b 3f 5c b2 c3 3e d7 be 4e 3f
       0.7463461 0.54306465 0.38222015 0.8075995
000060 9f f0 44 3f c6 2a 0f 3f f3 ce 1c 3f 3a fa 25 3f
       0.7692966 0.5592464 0.6125328 0.6483494
000070 39 18 10 3f 3a e4 18 3f 40 6b 4a 3f ba 58 f5 3e
       0.5628696 0.59723246 0.790699 0.47919255

bottle_neck.0.conv_block.6.bias f4 [32]
000000 32 44 b4 3e f1 5d 1d be e1 c1 0e 3f 93 fb 2e be
       0.3520828 -0.15367867 0.55764586 -0.17088155
000010 31 ea 3c 3f bd 08 b2 be 26 27 b1 3d 07 bb 09 3f
       0.7379485 -0.34772292 0.08650045 0.53801006
000020 03 95 39 3e 33 0f 35 be ab bf 07 40 96 15 cd bb
       0.1812325 -0.1768158 2.1210735 -0.0062586768
000030 8d df f7 3d 61 7c e0 3e 9e b6 c5 3e ee 63 0e 3f
       0.12103186 0.43844894 0.38615888 0.5562123
000040 f3 46 dd 3e 26 14 0e 3f 42 f9 0e 3c 2c 93 0f 3d
       0.43218192 0.55499494 0.00872642 0.035052463
000050 87 33 2c bd e3 8a 78 3e c5 2b c0 3e a1 3d e0 bd
       -0.042041328 0.24271731 0.37533394 -0.10949255
000060 77 ba 38 3f 4c 92 65 3e 94 ea de 3f 3f cf d8 3e
       0.7215952 0.22419089 1.7415338 0.42345616
000070 5c 09 18 bf d7 7f 87 3e 0d 80 89 be 2e 43 4a 3f
       -0.5938928 0.26464722 -0.26855507 0.7900876

bottle_neck.0.conv_block.6.running_mean f4 [32]
000000 ad ad 99 bf 34 b8 81 bf a4 49 a8 3e e5 dd a7 bf
       -1.2006127 -1.0134339 0.32868683 -1.3114592
000010 62 5c f4 40 3a 29 5a c0 5f 22 11 40 19 b8 3c 40
       7.636277 -3.4087663 2.2677228 2.9487364
000020 79 77 78 bf 89 a7 c6 3f a3 51 b8 bf a9 b3 d9 40
       -0.970573 1.5519878 -1.4399914 6.803181
000030 5c 3c f7 bb 6f 2b a6 bf 12 72 87 be b3 37 12 c0
       -0.007545037 -1.2982005 -0.26454216 -2.2846496
000040 91 60 8e bf 0e 26 f9 3f 4f 37 f3 3f f7 cd b2 be
       -1.112322 1.9464738 1.9001254 -0.34922764
000050 c6 8c 40 40 29 a2 c9 bf cd f3 a4 40 e2 5d 22 bf
       3.0085921 -1.5752612 5.154761 -0.63424504
000060 23 a2 06 c0 2e 37 69 3f 48 55 22 bf 1c bd b0 3a
       -2.103646 0.9109982 -0.6341138 0.0013484093
000070 c9 92 c6 3f 05 4b 56 bf 15 92 16 40 3e b8 a7 3f
       1.5513545 -0.8370822 2.3526661 1.3103101

bottle_neck.0.conv_block.6.running_var f4 [32]
000000 0b 53 c3 40 f0 ba 3c 41 c6 11 3a 41 dc 03 0c 41
       6.103887 11.795639 11.629339 8.750942
000010 ed 62 f0 40 ea b4 1d 41 b7 e6 b9 40 8e eb be 40
       7.512076 9.856668 5.8094134 5.966254
000020 68 6c b2 40 a7 5a 03 41 34 d5 f8 40 e2 f4 0b 41
       5.575733 8.209632 7.776026 8.747286
000030 61 c7 13 41 b2 07 eb 40 f4 06 32 41 dc ae de 40
       9.2361765 7.3446894 11.126698 6.958845
000040 67 fe ba 40 a8 cb 1f 41 74 df b1 40 3a 30 b8 40
       5.843555 9.987221 5.558527 5.755887
000050 37 4f ae 40 d8 0b aa 40 9f be 08 41 bc 1c 1c 41
       5.44717 5.313946 8.546538 9.757015
000060 6c 47 08 41 b5 d0 c9 40 66 8d 00 41 d2 87 9f 40
       8.517437 6.306727 8.034521 4.9853296
000070 aa 04 0a 41 1f 67 b6 40 f7 c1 e4 40 ca 15 bd 40
       8.626139 5.700088 7.1486773 5.90891

bottle_neck.1.conv_block.1.weight f4 [32, 32, 3, 3]
000000 61 ae 77 bd 15 a5 24 bd fa de 5e be 43 57 06 bd
       -0.060469035 -0.040196497 -0.21764746 -0.032798063
000010 5f f1 d3 bc bb 2c 8e 3e 53 77 7e bf f0 36 ee be
       -0.02587193 0.27768502 -0.99400824 -0.4652629
000020 31 9d 15 3d 80 5a ea 3e 23 7e 26 3d a5 98 b5 be
       0.036526863 0.4577217 0.040647637 -0.3546802
000030 cd b7 29 3f 66 34 d0 3d 39 4b 4a 3d f5 11 17 3f
       0.6629608 0.10166244 0.049388144 0.59011775
000040 72 df 23 be 75 64 a7 be 0c 04 8b be 5e cd 27 bf
       -0.16003206 -0.3269383 -0.27151525 -0.6554774
000050 c1 6e 51 bd 15 ae 11 3e 38 18 88 be 10 0c 6e 3b
       -0.051131014 0.14226563 -0.26580977 0.0036323108
000060 5d ed 1d 3e c9 c3 bb be cf 6f 63 3e 4f b7 07 3f
       0.15422578 -0.3667281 0.2221062 0.5301408
000070 46 77 51 3f ec 64 11 3f e4 f4 b0 be f8 3f a2 bd
       0.8182262 0.5679462 -0.34561837 -0.07922357
000080 e4 8f 55 be 6e fa 23 bf 59 86 81 3e 30 c0 17 bc
       -0.20855671 -0.64054 0.25297812 -0.00926213
000090 df 87 fb 3e 0d a1 b8 3d cf 6a 74 bc 93 2e b4 3e
       0.491271 0.09015093 -0.014918043 0.35191783
0000a0 1c bb 6f be be 28 a5 be f4 42 4d 3e d3 55 0f be
       -0.2341122 -0.32257646 0.20045072 -0.13997583
0000b0 58 97 d8 be f9 e1 5c 3e 4f 88 9f 3e b1 a0 73 be
       -0.42302966 0.21570577 0.31158683 -0.23791768
0000c0 69 af 97 3d 7a c0 4d 3e 71 27 b6 bd b0 a7 13 3e
       0.07406504 0.20092955 -0.088942416 0.14419436
0000d0 ef 9d 46 3e 96 4b c4 3d 1b 77 0c bf e2 c6 c6 be
       0.19396184 0.095847294 -0.5486924 -0.3882361
0000e0 d1 32 d7 3c f8 8e f6 be 6c 82 f5 bd 91 23 75 bd
       0.026269348 -0.48155951 -0.119877666 -0.059848372
0000f0 0c 36 ca bd c9 1a 0a 3d c7 30 9c 3d 00 e7 2b 3e
       -0.0987359 0.03371695 0.07626491 0.16787338
000100 3a 55 ea bd 11 91 ee 3d c0 c6 04 3f e6 36 1f bd
       -0.11442037 0.11648763 0.5186577 -0.038870715
000110 42 53 f2 3d 56 aa c8 3e ad 10 ef be 39 13 b4 3d
       0.118322864 0.39192456 -0.4669241 0.08792729
000120 86 30 6e 3e b9 ec 30 3e 90 5f fd 3d 19 ec 2a 3e
       0.23260698 0.17277803 0.12371743 0.16691627
000130 e4 5d d5 3d 1e e1 ab 3e a7 cb 91 be 33 45 10 be
       0.10418299 0.33570188 -0.28475687 -0.14088897
000140 ee 83 28 3e c2 6c 63 3f 49 82 8b be 0d 7f a3 3e
       0.16456577 0.88837826 -0.27247837 0.3193287
000150 2a 5b 07 3f 26 0b d1 be cb f4 a9 bb 24 a4 2c 3f
       0.5287348 -0.40828818 -0.0051866523 0.6743796
000160 b9 04 46 bf f9 bf 90 3c 0b 15 9a bf 67 19 3e 3d
       -0.77350956 0.017669665 -1.2037672 0.046410944
000170 b9 61 97 3e ad 70 84 bf 5a e8 e1 bc ea 0a a7 3e
       0.29566744 -1.0346886 -0.027576614 0.32625514
000180 d2 49 8d bf b8 2a bb 3e 30 3b ad 3e 73 5c 01 bf
       -1.1038153 0.3655603 0.3383422 -0.5053169
000190 6b 25 72 3e d9 c9 ed be 96 d9 0a bf 51 74 a3 3e
       0.23647086 -0.4644306 -0.5423826 0.3192468
0001a0 bf 78 25 be 79 7c 1a bf 72 c6 be 3e 11 98 2b be
       -0.16159342 -0.6034618 0.37260777 -0.16757227
0001b0 3c 5a a5 3e 73 7c 57 3e bb 85 d2 be 2e c2 12 3d
       0.32295406 0.21043567 -0.41117653 0.035829715
0001c0 6b 39 e8 bd 3f 0b 02 bf 13 b6 ed bb fb 1f 5d 3e
       -0.113390766 -0.5079841 -0.007254371 0.21594231
0001d0 b9 0b 26 bf cd 27 6f 3d 47 07 3c bd 06 8e a0 be
       -0.6486164 0.058387566 -0.045905378 -0.31358355
0001e0 99 f2 c0 3e 59 36 3e 3e 26 9e 6f 3e a3 1e 03 3e
       0.37685087 0.1857542 0.23400173 0.12804656
0001f0 44 df f2 3d 20 53 91 bd d3 68 dd 3b e7 20 13 3f
       0.11858991 -0.07095933 0.006756881 0.5747208
000200 26 24 39 3e b3 10 c2 be 5b 58 a0 3e d4 ac 48 bd
       0.18080196 -0.37903365 0.3131741 -0.048992947
000210 dc bb ba be 81 e7 a3 3d b6 2d b0 be 6c 92 00 be
       -0.3647145 0.0800314 -0.34409875 -0.12555856
000220 28 bb ce 3e a1 00 14 3e 70 8b 85 3e ea 11 84 3e
       0.40377164 0.14453365 0.26082945 0.25794917
000230 a7 6c df bc df c1 e7 be 4b 5c d8 3d 77 80 2b bf
       -0.02727349 -0.452651 0.105644785 -0.66992897
000240 91 a5 f9 3d 78 b8 4f 3d a3 e0 0e be 0c 69 22 3e
       0.121897824 0.050713032 -0.1395288 0.15860385
000250 90 f0 17 3e 3c 74 c1 be c5 9e bc 3e 81 00 d3 bd
       0.14837861 -0.37783992 0.36839882 -0.103028305
000260 d0 59 87 be ee c8 87 be b4 93 ea 3e 2f 56 e2 be
       -0.2643571 -0.26520485 0.45815814 -0.44206378
000270 d3 f6 07 bf 6d c9 28 3e d6 83 22 bf 58 0b 59 bf
       -0.53111 0.16483088 -0.63482416 -0.84782934
000280 a6 4b 34 3d 01 26 47 bf 09 a8 e4 3e d7 d9 0b be
       0.044017456 -0.77792364 0.4465945 -0.13657318
000290 05 9e 18 bf ac 16 d0 3e 3e 5a 0d bd df 6c 2d be
       -0.5961612 0.40642297 -0.03450989 -0.16936062
0002a0 e4 fc e1 3e a4 fb f5 bd 6d 3c 55 3e 9c 05 b2 be
       0.44138253 -0.12010887 0.20823832 -0.34769905
0002b0 2a e8 0e be 48 9e c1 3e 0b 6c 87 be fa 35 11 be
       -0.13955751 0.37816072 -0.26449618 -0.14180747
0002c0 29 ec aa 3e 86 1d bb be 9e 4f a3 bd 73 53 a2 3e
       0.333833 -0.36545962 -0.0797417 0.31704292
0002d0 3e ec 56 3e 82 6c b8 3e 2c ee d0 bd 9e d0 04 3d
       0.20988557 0.36020285 -0.10201678 0.032425515
0002e0 b9 84 86 3e c6 08 b2 3d 90 92 ba be 69 b7 c4 bc
       0.26273134 0.0869308 -0.36439943 -0.024013238
0002f0 33 21 a4 39 84 42 30 bd a9 99 85 be bc 3e 13 3f
       0.00031305253 -0.043032184 -0.26093796 0.575176
000300 59 38 89 3d cf 1e f8 bd eb af 2d 3f cb 5e b5 be
       0.067002006 -0.12115251 0.67846555 -0.35423884
000310 be fd a4 be 30 60 1e 3e b4 32 12 be 5b fd 24 bf
       -0.3222484 0.1546638 -0.14277154 -0.6444909
000320 bc 75 9e bd 57 5d 84 3e 3c d9 ea bd dd f4 18 3f
       -0.077373 0.25852463 -0.114672154 0.5974863
000330 76 7b ca 3d d1 2d 87 be c3 06 b5 3e aa 6b 52 3d
       0.098868296 -0.26402143 0.3535672 0.051372208
000340 cf 8e e7 3d 0a 89 db 3e f3 f5 d6 bd dc 13 57 be
       0.113065355 0.4287799 -0.1049613 -0.2100367
000350 c7 3f ce 3e b7 91 85 3e 02 9f 8c be 60 29 52 3f
       0.40283033 0.26087734 -0.27465063 0.82094383
000360 13 8f 43 3e 32 ac 26 3e 6c e9 49 3f 41 7f 96 3a
       0.19097547 0.16276625 0.788718 0.0011482016
000370 a6 59 02 bd 5e 00 b7 3e 82 a2 bb bd e8 e0 8b 3e
       -0.031823777 0.35742468 -0.09161855 0.27320027
000380 04 00 be 3d fe bb 82 be 56 86 e6 be f6 dc c5 bd
       0.09277347 -0.25534052 -0.45024365 -0.096612856
000390 b1 13 a4 bd a4 4d 22 bf db 84 d4 be 04 01 12 3f
       -0.08011568 -0.6339972 -0.4150761 0.570328
0003a0 ec d2 ad bd 9c 79 3d 3e 88 13 c7 be 95 a2 3d 3e
       -0.08487496 0.18503422 -0.3888209 0.18519051
0003b0 c8 74 c5 be 8e 01 1a be 18 e6 63 bd 7f 07 b2 be
       -0.3856566 -0.15039656 -0.055639356 -0.34771344
0003c0 3f 48 bc be 33 11 e8 bd 93 c6 23 bf 80 fe d7 3e
       -0.3677387 -0.113314055 -0.63974875 0.42186356
0003d0 f7 98 79 3e 12 98 53 3e 9e db 0b 3d 97 80 06 3e
       0.24374758 0.20663479 0.03414499 0.1313499
0003e0 c4 aa a9 3d cb 6f ce 3d 0f c6 c5 ba 6e cf 1b be
       0.08284524 0.100799166 -0.0015088933 -0.15215847
0003f0 f8 60 dc be 22 62 17 3e b0 87 07 bf ea 08 7d be
       -0.4304273 0.14783528 -0.5294142 -0.24710432

bottle_neck.1.conv_block.2.weight f4 [32]
000000 1f 10 54 3f 5b 51 3b 3e 74 0f f7 3d 5a 47 17 3e
       0.828371 0.18292753 0.12063494 0.14773312
000010 49 15 1a 3f c5 89 d2 3e e9 48 f8 3e 33 fc 1d 3f
       0.6018873 0.41120735 0.48493126 0.6171295
000020 e1 39 0c 3f f9 e6 05 3e 08 69 3a 3e d9 88 69 3f
       0.54775816 0.1307639 0.18204129 0.9122444
000030 50 23 40 3e 1e 85 4e 3e 1b 82 f6 3e 87 a9 00 3f
       0.1876347 0.20167968 0.48146138 0.5025868
000040 76 7d c3 3e 7c f7 80 3e 32 46 50 3f 66 99 33 3f
       0.38181657 0.25188816 0.8135711 0.7015594
000050 09 cb 03 3f f4 5a 5f 3e dd 1b 05 3f e1 62 55 3e
       0.5148168 0.2181204 0.5199564 0.208385
000060 3f 9c 19 3e 07 f2 4c 3f bd 78 5b 3e ba 90 0b 3f
       0.1500101 0.80056804 0.21432777 0.5451771
000070 0a 47 5e 3e 8c 90 1e 3f a3 71 06 3e e7 f7 ce 3e
       0.21706787 0.6193931 0.13129286 0.4042351
